…
['images/train/c2/img_35223.jpg' 'images/train/c3/img_589.jpg'
 'images/train/c3/img_27064.jpg' ... 'images/train/c7/img_30031.jpg'
 'images/train/c1/img_38254.jpg' 'images/train/c9/img_79782.jpg']
['images/train/c9/img_63600.jpg' 'images/train/c8/img_81710.jpg'
 'images/train/c6/img_59165.jpg' ... 'images/train/c8/img_5913.jpg'
 'images/train/c2/img_54317.jpg' 'images/train/c0/img_88075.jpg']
Creating Models
Base Model
_________________________________________________________________
Layer (type)                 Output Shape              Param #   
=================================================================
conv2d_1 (Conv2D)            (None, 221, 221, 10)      490       
_________________________________________________________________
max_pooling2d_1 (MaxPooling2 (None, 55, 55, 10)        0         
_________________________________________________________________
global_average_pooling2d_1 ( (None, 10)                0         
_________________________________________________________________
dense_1 (Dense)              (None, 10)                110       
=================================================================
Total params: 600
Trainable params: 600
Non-trainable params: 0
_________________________________________________________________
create_model11 - Multiple conv2d layers + 2 dense sofmax layers
_________________________________________________________________
Layer (type)                 Output Shape              Param #   
=================================================================
conv2d_2 (Conv2D)            (None, 221, 221, 10)      490       
_________________________________________________________________
max_pooling2d_2 (MaxPooling2 (None, 55, 55, 10)        0         
_________________________________________________________________
conv2d_3 (Conv2D)            (None, 52, 52, 10)        1610      
_________________________________________________________________
max_pooling2d_3 (MaxPooling2 (None, 13, 13, 10)        0         
_________________________________________________________________
global_average_pooling2d_2 ( (None, 10)                0         
_________________________________________________________________
dense_2 (Dense)              (None, 10)                110       
_________________________________________________________________
dense_3 (Dense)              (None, 10)                110       
=================================================================
Total params: 2,320
Trainable params: 2,320
Non-trainable params: 0
_________________________________________________________________
create_model12 - Multiple conv2d layers + 2 dense sofmax layers
_________________________________________________________________
Layer (type)                 Output Shape              Param #   
=================================================================
conv2d_4 (Conv2D)            (None, 221, 221, 10)      490       
_________________________________________________________________
max_pooling2d_4 (MaxPooling2 (None, 55, 55, 10)        0         
_________________________________________________________________
conv2d_5 (Conv2D)            (None, 52, 52, 10)        1610      
_________________________________________________________________
max_pooling2d_5 (MaxPooling2 (None, 13, 13, 10)        0         
_________________________________________________________________
global_average_pooling2d_3 ( (None, 10)                0         
_________________________________________________________________
dense_4 (Dense)              (None, 10)                110       
_________________________________________________________________
dense_5 (Dense)              (None, 10)                110       
_________________________________________________________________
dense_6 (Dense)              (None, 10)                110       
_________________________________________________________________
dense_7 (Dense)              (None, 10)                110       
_________________________________________________________________
dense_8 (Dense)              (None, 10)                110       
=================================================================
Total params: 2,650
Trainable params: 2,650
Non-trainable params: 0
_________________________________________________________________
create_model13 - Multiple conv2d layers + 2 dense sofmax layers
_________________________________________________________________
Layer (type)                 Output Shape              Param #   
=================================================================
conv2d_6 (Conv2D)            (None, 221, 221, 10)      490       
_________________________________________________________________
max_pooling2d_6 (MaxPooling2 (None, 55, 55, 10)        0         
_________________________________________________________________
global_average_pooling2d_4 ( (None, 10)                0         
_________________________________________________________________
dense_9 (Dense)              (None, 10)                110       
_________________________________________________________________
dense_10 (Dense)             (None, 10)                110       
_________________________________________________________________
dense_11 (Dense)             (None, 10)                110       
_________________________________________________________________
dense_12 (Dense)             (None, 10)                110       
_________________________________________________________________
dense_13 (Dense)             (None, 10)                110       
=================================================================
Total params: 1,040
Trainable params: 1,040
Non-trainable params: 0
_________________________________________________________________
{'model': <keras.models.Sequential object at 0x7ff83a53ba50>, 'model_name': 'create_base_model'}
{'model': <keras.models.Sequential object at 0x7ff828e5f950>, 'model_name': 'create_model11'}
{'model': <keras.models.Sequential object at 0x7ff838460450>, 'model_name': 'create_model12'}
…
