…
['images/train/c2/img_35223.jpg' 'images/train/c3/img_589.jpg'
 'images/train/c3/img_27064.jpg' ... 'images/train/c7/img_30031.jpg'
 'images/train/c1/img_38254.jpg' 'images/train/c9/img_79782.jpg']
['images/train/c9/img_63600.jpg' 'images/train/c8/img_81710.jpg'
 'images/train/c6/img_59165.jpg' ... 'images/train/c8/img_5913.jpg'
 'images/train/c2/img_54317.jpg' 'images/train/c0/img_88075.jpg']
Creating Models
Base Model
_________________________________________________________________
Layer (type)                 Output Shape              Param #   
=================================================================
conv2d_1 (Conv2D)            (None, 221, 221, 10)      490       
_________________________________________________________________
max_pooling2d_1 (MaxPooling2 (None, 55, 55, 10)        0         
_________________________________________________________________
global_average_pooling2d_1 ( (None, 10)                0         
_________________________________________________________________
dense_1 (Dense)              (None, 10)                110       
=================================================================
Total params: 600
Trainable params: 600
Non-trainable params: 0
_________________________________________________________________
create_model10 - Multiple conv2d layers + 3 dense sofmax layers
_________________________________________________________________
Layer (type)                 Output Shape              Param #   
=================================================================
conv2d_2 (Conv2D)            (None, 221, 221, 10)      490       
_________________________________________________________________
max_pooling2d_2 (MaxPooling2 (None, 55, 55, 10)        0         
_________________________________________________________________
conv2d_3 (Conv2D)            (None, 52, 52, 10)        1610      
_________________________________________________________________
max_pooling2d_3 (MaxPooling2 (None, 13, 13, 10)        0         
_________________________________________________________________
conv2d_4 (Conv2D)            (None, 10, 10, 10)        1610      
_________________________________________________________________
max_pooling2d_4 (MaxPooling2 (None, 2, 2, 10)          0         
_________________________________________________________________
global_average_pooling2d_2 ( (None, 10)                0         
_________________________________________________________________
dense_2 (Dense)              (None, 10)                110       
_________________________________________________________________
dense_3 (Dense)              (None, 10)                110       
_________________________________________________________________
dense_4 (Dense)              (None, 10)                110       
=================================================================
Total params: 4,040
Trainable params: 4,040
Non-trainable params: 0
_________________________________________________________________
Model1 with Batch Normalization
_________________________________________________________________
Layer (type)                 Output Shape              Param #   
=================================================================
conv2d_5 (Conv2D)            (None, 221, 221, 10)      490       
_________________________________________________________________
batch_normalization_1 (Batch (None, 221, 221, 10)      40        
_________________________________________________________________
max_pooling2d_5 (MaxPooling2 (None, 55, 55, 10)        0         
_________________________________________________________________
global_average_pooling2d_3 ( (None, 10)                0         
_________________________________________________________________
dense_5 (Dense)              (None, 10)                110       
=================================================================
Total params: 640
Trainable params: 620
Non-trainable params: 20
_________________________________________________________________
Model2 - Multiple conv2d layers
_________________________________________________________________
Layer (type)                 Output Shape              Param #   
=================================================================
conv2d_6 (Conv2D)            (None, 221, 221, 10)      490       
_________________________________________________________________
max_pooling2d_6 (MaxPooling2 (None, 55, 55, 10)        0         
_________________________________________________________________
conv2d_7 (Conv2D)            (None, 52, 52, 10)        1610      
_________________________________________________________________
max_pooling2d_7 (MaxPooling2 (None, 13, 13, 10)        0         
_________________________________________________________________
global_average_pooling2d_4 ( (None, 10)                0         
_________________________________________________________________
dense_6 (Dense)              (None, 10)                110       
=================================================================
Total params: 2,210
Trainable params: 2,210
Non-trainable params: 0
_________________________________________________________________
create_model8 - Multiple conv2d layers w/ for each Conv2D + 3 softmax layers + Dropouts + kernel_regularizers in dense layers
_________________________________________________________________
Layer (type)                 Output Shape              Param #   
=================================================================
conv2d_8 (Conv2D)            (None, 221, 221, 10)      490       
_________________________________________________________________
max_pooling2d_8 (MaxPooling2 (None, 55, 55, 10)        0         
_________________________________________________________________
conv2d_9 (Conv2D)            (None, 52, 52, 10)        1610      
_________________________________________________________________
max_pooling2d_9 (MaxPooling2 (None, 13, 13, 10)        0         
_________________________________________________________________
conv2d_10 (Conv2D)           (None, 10, 10, 10)        1610      
_________________________________________________________________
max_pooling2d_10 (MaxPooling (None, 2, 2, 10)          0         
_________________________________________________________________
global_average_pooling2d_5 ( (None, 10)                0         
_________________________________________________________________
dropout_1 (Dropout)          (None, 10)                0         
_________________________________________________________________
dense_7 (Dense)              (None, 10)                110       
_________________________________________________________________
dropout_2 (Dropout)          (None, 10)                0         
_________________________________________________________________
dense_8 (Dense)              (None, 10)                110       
_________________________________________________________________
dropout_3 (Dropout)          (None, 10)                0         
_________________________________________________________________
dense_9 (Dense)              (None, 10)                110       
=================================================================
Total params: 4,040
Trainable params: 4,040
Non-trainable params: 0
_________________________________________________________________
create_model9 - Multiple conv2d layers w/ Batch Normalization for each Conv2D + 3 softmax layers + Dropouts
_________________________________________________________________
Layer (type)                 Output Shape              Param #   
=================================================================
conv2d_11 (Conv2D)           (None, 221, 221, 10)      490       
_________________________________________________________________
dropout_4 (Dropout)          (None, 221, 221, 10)      0         
_________________________________________________________________
max_pooling2d_11 (MaxPooling (None, 55, 55, 10)        0         
_________________________________________________________________
conv2d_12 (Conv2D)           (None, 52, 52, 10)        1610      
_________________________________________________________________
dropout_5 (Dropout)          (None, 52, 52, 10)        0         
_________________________________________________________________
max_pooling2d_12 (MaxPooling (None, 13, 13, 10)        0         
_________________________________________________________________
conv2d_13 (Conv2D)           (None, 10, 10, 10)        1610      
_________________________________________________________________
dropout_6 (Dropout)          (None, 10, 10, 10)        0         
_________________________________________________________________
max_pooling2d_13 (MaxPooling (None, 2, 2, 10)          0         
_________________________________________________________________
global_average_pooling2d_6 ( (None, 10)                0         
_________________________________________________________________
dropout_7 (Dropout)          (None, 10)                0         
_________________________________________________________________
dense_10 (Dense)             (None, 10)                110       
_________________________________________________________________
dropout_8 (Dropout)          (None, 10)                0         
_________________________________________________________________
dense_11 (Dense)             (None, 10)                110       
_________________________________________________________________
dropout_9 (Dropout)          (None, 10)                0         
_________________________________________________________________
dense_12 (Dense)             (None, 10)                110       
=================================================================
Total params: 4,040
Trainable params: 4,040
Non-trainable params: 0
_________________________________________________________________
{'model': <keras.models.Sequential object at 0x7f9745d70450>, 'model_name': 'create_base_model'}
{'model': <keras.models.Sequential object at 0x7f974424c4d0>, 'model_name': 'create_model10'}
{'model': <keras.models.Sequential object at 0x7f9745c3b910>, 'model_name': 'create_model1'}
…
